Seq2Seq(
  (embedding): Embedding(2004, 300)
  (encoder): GRUEncoder(
    (rnn): GRU(300, 400, batch_first=True, bidirectional=True)
  )
  (decoder): GRUDecoder(
    (embedding): Embedding(2004, 300)
    (attention): MLPAttention(
      (linear_query): Linear(in_features=800, out_features=800, bias=True)
      (linear_value): Linear(in_features=800, out_features=800, bias=False)
      (tanh): Tanh()
      (linear_hidden): Linear(in_features=800, out_features=1, bias=False)
    )
    (rnn): GRUCell(1900, 800)
    (output_layer): Sequential(
      (0): Dropout(p=0.2)
      (1): Linear(in_features=800, out_features=2004, bias=True)
    )
  )
  (cross_entropy): SequenceCrossEntropy()
)
Number of parameters: 11657604

Training starts ...

=====================================================================================
================================== Model Training ===================================
=====================================================================================

Seq2Seq(
  (embedding): Embedding(2004, 300)
  (encoder): GRUEncoder(
    (rnn): GRU(300, 400, batch_first=True, bidirectional=True)
  )
  (decoder): GRUDecoder(
    (embedding): Embedding(2004, 300)
    (attention): MLPAttention(
      (linear_query): Linear(in_features=800, out_features=800, bias=True)
      (linear_value): Linear(in_features=800, out_features=800, bias=False)
      (tanh): Tanh()
      (linear_hidden): Linear(in_features=800, out_features=1, bias=False)
    )
    (rnn): GRUCell(1900, 800)
    (output_layer): Sequential(
      (0): Dropout(p=0.2)
      (1): Linear(in_features=800, out_features=2004, bias=True)
    )
  )
  (cross_entropy): SequenceCrossEntropy()
)
Number of parameters: 11657604

Training starts ...

=====================================================================================
================================== Model Training ===================================
=====================================================================================

Seq2Seq(
  (embedding): Embedding(2004, 300)
  (encoder): GRUEncoder(
    (rnn): GRU(300, 400, batch_first=True, bidirectional=True)
  )
  (decoder): GRUDecoder(
    (embedding): Embedding(2004, 300)
    (attention): MLPAttention(
      (linear_query): Linear(in_features=800, out_features=800, bias=True)
      (linear_value): Linear(in_features=800, out_features=800, bias=False)
      (tanh): Tanh()
      (linear_hidden): Linear(in_features=800, out_features=1, bias=False)
    )
    (rnn): GRUCell(1900, 800)
    (output_layer): Sequential(
      (0): Dropout(p=0.2)
      (1): Linear(in_features=800, out_features=2004, bias=True)
    )
  )
  (cross_entropy): SequenceCrossEntropy()
)
Number of parameters: 11657604

Training starts ...

=====================================================================================
================================== Model Training ===================================
=====================================================================================

Seq2Seq(
  (embedding): Embedding(2004, 300)
  (encoder): GRUEncoder(
    (rnn): GRU(300, 400, batch_first=True, bidirectional=True)
  )
  (decoder): GRUDecoder(
    (embedding): Embedding(2004, 300)
    (attention): MLPAttention(
      (linear_query): Linear(in_features=800, out_features=800, bias=True)
      (linear_value): Linear(in_features=800, out_features=800, bias=False)
      (tanh): Tanh()
      (linear_hidden): Linear(in_features=800, out_features=1, bias=False)
    )
    (rnn): GRUCell(1900, 800)
    (output_layer): Sequential(
      (0): Dropout(p=0.2)
      (1): Linear(in_features=800, out_features=2004, bias=True)
    )
  )
  (cross_entropy): SequenceCrossEntropy()
)
Number of parameters: 11657604

Training starts ...

=====================================================================================
================================== Model Training ===================================
=====================================================================================

Seq2Seq(
  (embedding): Embedding(2004, 300)
  (encoder): GRUEncoder(
    (rnn): GRU(300, 400, batch_first=True, bidirectional=True)
  )
  (decoder): GRUDecoder(
    (embedding): Embedding(2004, 300)
    (attention): MLPAttention(
      (linear_query): Linear(in_features=800, out_features=800, bias=True)
      (linear_value): Linear(in_features=800, out_features=800, bias=False)
      (tanh): Tanh()
      (linear_hidden): Linear(in_features=800, out_features=1, bias=False)
    )
    (rnn): GRUCell(1900, 800)
    (output_layer): Sequential(
      (0): Dropout(p=0.2)
      (1): Linear(in_features=800, out_features=2004, bias=True)
    )
  )
  (cross_entropy): SequenceCrossEntropy()
)
Number of parameters: 11657604

Training starts ...

=====================================================================================
================================== Model Training ===================================
=====================================================================================

Seq2Seq(
  (embedding): Embedding(2004, 300)
  (encoder): GRUEncoder(
    (rnn): GRU(300, 400, batch_first=True, bidirectional=True)
  )
  (decoder): GRUDecoder(
    (embedding): Embedding(2004, 300)
    (attention): MLPAttention(
      (linear_query): Linear(in_features=800, out_features=800, bias=True)
      (linear_value): Linear(in_features=800, out_features=800, bias=False)
      (tanh): Tanh()
      (linear_hidden): Linear(in_features=800, out_features=1, bias=False)
    )
    (rnn): GRUCell(1900, 800)
    (output_layer): Sequential(
      (0): Dropout(p=0.2)
      (1): Linear(in_features=800, out_features=2004, bias=True)
    )
  )
  (cross_entropy): SequenceCrossEntropy()
)
Number of parameters: 11657604

Training starts ...

=====================================================================================
================================== Model Training ===================================
=====================================================================================

Seq2Seq(
  (embedding): Embedding(2004, 300)
  (encoder): GRUEncoder(
    (rnn): GRU(300, 400, batch_first=True, bidirectional=True)
  )
  (decoder): GRUDecoder(
    (embedding): Embedding(2004, 300)
    (attention): MLPAttention(
      (linear_query): Linear(in_features=800, out_features=800, bias=True)
      (linear_value): Linear(in_features=800, out_features=800, bias=False)
      (tanh): Tanh()
      (linear_hidden): Linear(in_features=800, out_features=1, bias=False)
    )
    (rnn): GRUCell(1900, 800)
    (output_layer): Sequential(
      (0): Dropout(p=0.2)
      (1): Linear(in_features=800, out_features=2004, bias=True)
    )
  )
  (cross_entropy): SequenceCrossEntropy()
)
Number of parameters: 11657604

Training starts ...

=====================================================================================
================================== Model Training ===================================
=====================================================================================

Seq2Seq(
  (embedding): Embedding(2004, 300)
  (encoder): GRUEncoder(
    (rnn): GRU(300, 400, batch_first=True, bidirectional=True)
  )
  (decoder): GRUDecoder(
    (embedding): Embedding(2004, 300)
    (attention): MLPAttention(
      (linear_query): Linear(in_features=800, out_features=800, bias=True)
      (linear_value): Linear(in_features=800, out_features=800, bias=False)
      (tanh): Tanh()
      (linear_hidden): Linear(in_features=800, out_features=1, bias=False)
    )
    (rnn): GRUCell(1900, 800)
    (output_layer): Sequential(
      (0): Dropout(p=0.2)
      (1): Linear(in_features=800, out_features=2004, bias=True)
    )
  )
  (cross_entropy): SequenceCrossEntropy()
)
Number of parameters: 11657604

Training starts ...

=====================================================================================
================================== Model Training ===================================
=====================================================================================

Seq2Seq(
  (embedding): Embedding(2004, 300)
  (encoder): GRUEncoder(
    (rnn): GRU(300, 400, batch_first=True, bidirectional=True)
  )
  (decoder): GRUDecoder(
    (embedding): Embedding(2004, 300)
    (attention): MLPAttention(
      (linear_query): Linear(in_features=800, out_features=800, bias=True)
      (linear_value): Linear(in_features=800, out_features=800, bias=False)
      (tanh): Tanh()
      (linear_hidden): Linear(in_features=800, out_features=1, bias=False)
    )
    (rnn): GRUCell(1900, 800)
    (output_layer): Sequential(
      (0): Dropout(p=0.2)
      (1): Linear(in_features=800, out_features=2004, bias=True)
    )
  )
  (cross_entropy): SequenceCrossEntropy()
)
Number of parameters: 11657604

Training starts ...

=====================================================================================
================================== Model Training ===================================
=====================================================================================

Seq2Seq(
  (embedding): Embedding(2004, 300)
  (encoder): GRUEncoder(
    (rnn): GRU(300, 400, batch_first=True, bidirectional=True)
  )
  (decoder): GRUDecoder(
    (embedding): Embedding(2004, 300)
    (attention): MLPAttention(
      (linear_query): Linear(in_features=800, out_features=800, bias=True)
      (linear_value): Linear(in_features=800, out_features=800, bias=False)
      (tanh): Tanh()
      (linear_hidden): Linear(in_features=800, out_features=1, bias=False)
    )
    (rnn): GRUCell(1900, 800)
    (output_layer): Sequential(
      (0): Dropout(p=0.2)
      (1): Linear(in_features=800, out_features=2004, bias=True)
    )
  )
  (cross_entropy): SequenceCrossEntropy()
)
Number of parameters: 11657604

Training starts ...

=====================================================================================
================================== Model Training ===================================
=====================================================================================

Seq2Seq(
  (embedding): Embedding(2004, 300)
  (encoder): GRUEncoder(
    (rnn): GRU(300, 400, batch_first=True, bidirectional=True)
  )
  (decoder): GRUDecoder(
    (embedding): Embedding(2004, 300)
    (attention): MLPAttention(
      (linear_query): Linear(in_features=800, out_features=800, bias=True)
      (linear_value): Linear(in_features=800, out_features=800, bias=False)
      (tanh): Tanh()
      (linear_hidden): Linear(in_features=800, out_features=1, bias=False)
    )
    (rnn): GRUCell(1900, 800)
    (output_layer): Sequential(
      (0): Dropout(p=0.2)
      (1): Linear(in_features=800, out_features=2004, bias=True)
    )
  )
  (cross_entropy): SequenceCrossEntropy()
)
Number of parameters: 11657604

Training starts ...

=====================================================================================
================================== Model Training ===================================
=====================================================================================

Seq2Seq(
  (embedding): Embedding(2004, 300)
  (encoder): GRUEncoder(
    (rnn): GRU(300, 400, batch_first=True, bidirectional=True)
  )
  (decoder): GRUDecoder(
    (embedding): Embedding(2004, 300)
    (attention): MLPAttention(
      (linear_query): Linear(in_features=800, out_features=800, bias=True)
      (linear_value): Linear(in_features=800, out_features=800, bias=False)
      (tanh): Tanh()
      (linear_hidden): Linear(in_features=800, out_features=1, bias=False)
    )
    (rnn): GRUCell(1900, 800)
    (output_layer): Sequential(
      (0): Dropout(p=0.2)
      (1): Linear(in_features=800, out_features=2004, bias=True)
    )
  )
  (cross_entropy): SequenceCrossEntropy()
)
Number of parameters: 11657604

Training starts ...

=====================================================================================
================================== Model Training ===================================
=====================================================================================

Seq2Seq(
  (embedding): Embedding(2004, 300)
  (encoder): GRUEncoder(
    (rnn): GRU(300, 400, batch_first=True, bidirectional=True)
  )
  (decoder): GRUDecoder(
    (embedding): Embedding(2004, 300)
    (attention): MLPAttention(
      (linear_query): Linear(in_features=800, out_features=800, bias=True)
      (linear_value): Linear(in_features=800, out_features=800, bias=False)
      (tanh): Tanh()
      (linear_hidden): Linear(in_features=800, out_features=1, bias=False)
    )
    (rnn): GRUCell(1900, 800)
    (output_layer): Sequential(
      (0): Dropout(p=0.2)
      (1): Linear(in_features=800, out_features=2004, bias=True)
    )
  )
  (cross_entropy): SequenceCrossEntropy()
)
Number of parameters: 11657604

Training starts ...

=====================================================================================
================================== Model Training ===================================
=====================================================================================

Seq2Seq(
  (embedding): Embedding(2004, 300)
  (encoder): GRUEncoder(
    (rnn): GRU(300, 400, batch_first=True, bidirectional=True)
  )
  (decoder): GRUDecoder(
    (embedding): Embedding(2004, 300)
    (attention): MLPAttention(
      (linear_query): Linear(in_features=800, out_features=800, bias=True)
      (linear_value): Linear(in_features=800, out_features=800, bias=False)
      (tanh): Tanh()
      (linear_hidden): Linear(in_features=800, out_features=1, bias=False)
    )
    (rnn): GRUCell(1900, 800)
    (output_layer): Sequential(
      (0): Dropout(p=0.2)
      (1): Linear(in_features=800, out_features=2004, bias=True)
    )
  )
  (cross_entropy): SequenceCrossEntropy()
)
Number of parameters: 11657604

Training starts ...

=====================================================================================
================================== Model Training ===================================
=====================================================================================

Seq2Seq(
  (embedding): Embedding(2004, 300)
  (encoder): GRUEncoder(
    (rnn): GRU(300, 400, batch_first=True, bidirectional=True)
  )
  (decoder): GRUDecoder(
    (embedding): Embedding(2004, 300)
    (attention): MLPAttention(
      (linear_query): Linear(in_features=800, out_features=800, bias=True)
      (linear_value): Linear(in_features=800, out_features=800, bias=False)
      (tanh): Tanh()
      (linear_hidden): Linear(in_features=800, out_features=1, bias=False)
    )
    (rnn): GRUCell(1900, 800)
    (output_layer): Sequential(
      (0): Dropout(p=0.2)
      (1): Linear(in_features=800, out_features=2004, bias=True)
    )
  )
  (cross_entropy): SequenceCrossEntropy()
)
Number of parameters: 11657604

Training starts ...

=====================================================================================
================================== Model Training ===================================
=====================================================================================

Seq2Seq(
  (embedding): Embedding(2004, 300)
  (encoder): GRUEncoder(
    (rnn): GRU(300, 400, batch_first=True, bidirectional=True)
  )
  (decoder): GRUDecoder(
    (embedding): Embedding(2004, 300)
    (attention): MLPAttention(
      (linear_query): Linear(in_features=800, out_features=800, bias=True)
      (linear_value): Linear(in_features=800, out_features=800, bias=False)
      (tanh): Tanh()
      (linear_hidden): Linear(in_features=800, out_features=1, bias=False)
    )
    (rnn): GRUCell(1900, 800)
    (output_layer): Sequential(
      (0): Dropout(p=0.2)
      (1): Linear(in_features=800, out_features=2004, bias=True)
    )
  )
  (cross_entropy): SequenceCrossEntropy()
)
Number of parameters: 11657604

Training starts ...

=====================================================================================
================================== Model Training ===================================
=====================================================================================

Seq2Seq(
  (embedding): Embedding(2004, 300)
  (encoder): GRUEncoder(
    (rnn): GRU(300, 400, batch_first=True, bidirectional=True)
  )
  (decoder): GRUDecoder(
    (embedding): Embedding(2004, 300)
    (attention): MLPAttention(
      (linear_query): Linear(in_features=800, out_features=800, bias=True)
      (linear_value): Linear(in_features=800, out_features=800, bias=False)
      (tanh): Tanh()
      (linear_hidden): Linear(in_features=800, out_features=1, bias=False)
    )
    (rnn): GRUCell(1900, 800)
    (output_layer): Sequential(
      (0): Dropout(p=0.2)
      (1): Linear(in_features=800, out_features=2004, bias=True)
    )
  )
  (cross_entropy): SequenceCrossEntropy()
)
Number of parameters: 11657604

Training starts ...

=====================================================================================
================================== Model Training ===================================
=====================================================================================

Seq2Seq(
  (embedding): Embedding(2004, 300)
  (encoder): GRUEncoder(
    (rnn): GRU(300, 400, batch_first=True, bidirectional=True)
  )
  (decoder): GRUDecoder(
    (embedding): Embedding(2004, 300)
    (attention): MLPAttention(
      (linear_query): Linear(in_features=800, out_features=800, bias=True)
      (linear_value): Linear(in_features=800, out_features=800, bias=False)
      (tanh): Tanh()
      (linear_hidden): Linear(in_features=800, out_features=1, bias=False)
    )
    (rnn): GRUCell(1100, 800)
    (output_layer): Sequential(
      (0): Dropout(p=0.2)
      (1): Linear(in_features=800, out_features=2004, bias=True)
    )
  )
  (cross_entropy): SequenceCrossEntropy()
)
Number of parameters: 9737604

Training starts ...

=====================================================================================
================================== Model Training ===================================
=====================================================================================

Seq2Seq(
  (embedding): Embedding(2004, 300)
  (encoder): GRUEncoder(
    (rnn): GRU(300, 400, batch_first=True, bidirectional=True)
  )
  (decoder): GRUDecoder(
    (embedding): Embedding(2004, 300)
    (attention): MLPAttention(
      (linear_query): Linear(in_features=800, out_features=800, bias=True)
      (linear_value): Linear(in_features=800, out_features=800, bias=False)
      (tanh): Tanh()
      (linear_hidden): Linear(in_features=800, out_features=1, bias=False)
    )
    (rnn): GRUCell(1100, 800)
    (output_layer): Sequential(
      (0): Dropout(p=0.2)
      (1): Linear(in_features=800, out_features=2004, bias=True)
    )
  )
  (cross_entropy): SequenceCrossEntropy()
)
Number of parameters: 9737604

Training starts ...

=====================================================================================
================================== Model Training ===================================
=====================================================================================

Seq2Seq(
  (embedding): Embedding(2004, 300)
  (encoder): GRUEncoder(
    (rnn): GRU(300, 400, batch_first=True, bidirectional=True)
  )
  (decoder): GRUDecoder(
    (embedding): Embedding(2004, 300)
    (attention): MLPAttention(
      (linear_query): Linear(in_features=800, out_features=800, bias=True)
      (linear_value): Linear(in_features=800, out_features=800, bias=False)
      (tanh): Tanh()
      (linear_hidden): Linear(in_features=800, out_features=1, bias=False)
    )
    (rnn): GRUCell(1100, 800)
    (output_layer): Sequential(
      (0): Dropout(p=0.2)
      (1): Linear(in_features=800, out_features=2004, bias=True)
    )
  )
  (cross_entropy): SequenceCrossEntropy()
)
Number of parameters: 9737604

Training starts ...

=====================================================================================
================================== Model Training ===================================
=====================================================================================

Seq2Seq(
  (embedding): Embedding(2004, 300)
  (encoder): GRUEncoder(
    (rnn): GRU(300, 400, batch_first=True, bidirectional=True)
  )
  (decoder): GRUDecoder(
    (embedding): Embedding(2004, 300)
    (attention): MLPAttention(
      (linear_query): Linear(in_features=800, out_features=800, bias=True)
      (linear_value): Linear(in_features=800, out_features=800, bias=False)
      (tanh): Tanh()
      (linear_hidden): Linear(in_features=800, out_features=1, bias=False)
    )
    (rnn): GRUCell(1100, 800)
    (output_layer): Sequential(
      (0): Dropout(p=0.2)
      (1): Linear(in_features=800, out_features=2004, bias=True)
    )
  )
  (cross_entropy): SequenceCrossEntropy()
)
Number of parameters: 9737604

Training starts ...

=====================================================================================
================================== Model Training ===================================
=====================================================================================

Seq2Seq(
  (embedding): Embedding(2004, 300)
  (encoder): GRUEncoder(
    (rnn): GRU(300, 400, batch_first=True, bidirectional=True)
  )
  (decoder): GRUDecoder(
    (embedding): Embedding(2004, 300)
    (attention): MLPAttention(
      (linear_query): Linear(in_features=800, out_features=800, bias=True)
      (linear_value): Linear(in_features=800, out_features=800, bias=False)
      (tanh): Tanh()
      (linear_hidden): Linear(in_features=800, out_features=1, bias=False)
    )
    (rnn): GRUCell(1100, 800)
    (output_layer): Sequential(
      (0): Dropout(p=0.2)
      (1): Linear(in_features=800, out_features=2004, bias=True)
    )
  )
  (cross_entropy): SequenceCrossEntropy()
)
Number of parameters: 9737604

Training starts ...

=====================================================================================
================================== Model Training ===================================
=====================================================================================

Seq2Seq(
  (embedding): Embedding(2004, 300)
  (encoder): GRUEncoder(
    (rnn): GRU(300, 400, batch_first=True, bidirectional=True)
  )
  (decoder): GRUDecoder(
    (embedding): Embedding(2004, 300)
    (attention): MLPAttention(
      (linear_query): Linear(in_features=800, out_features=800, bias=True)
      (linear_value): Linear(in_features=800, out_features=800, bias=False)
      (tanh): Tanh()
      (linear_hidden): Linear(in_features=800, out_features=1, bias=False)
    )
    (rnn): GRUCell(1100, 800)
    (output_layer): Sequential(
      (0): Dropout(p=0.2)
      (1): Linear(in_features=800, out_features=2004, bias=True)
    )
  )
  (cross_entropy): SequenceCrossEntropy()
)
Number of parameters: 9737604

Training starts ...

=====================================================================================
================================== Model Training ===================================
=====================================================================================

[Train][ 1][1/22]   NLL-36.105   ACC-0.000   PPL-4786647635853312.000   LOSS-36.105   TIME-2.03

--------------------------------- Model Evaulation ---------------------------------
Seq2Seq(
  (embedding): Embedding(2004, 300)
  (encoder): GRUEncoder(
    (rnn): GRU(300, 400, batch_first=True, bidirectional=True)
  )
  (decoder): GRUDecoder(
    (embedding): Embedding(2004, 300)
    (attention): MLPAttention(
      (linear_query): Linear(in_features=800, out_features=800, bias=True)
      (linear_value): Linear(in_features=800, out_features=800, bias=False)
      (tanh): Tanh()
      (linear_hidden): Linear(in_features=800, out_features=1, bias=False)
    )
    (rnn): GRUCell(1100, 800)
    (output_layer): Sequential(
      (0): Dropout(p=0.2)
      (1): Linear(in_features=800, out_features=2004, bias=True)
    )
  )
  (cross_entropy): SequenceCrossEntropy()
)
Number of parameters: 9737604

Training starts ...

=====================================================================================
================================== Model Training ===================================
=====================================================================================
…
